Found 5216 images belonging to 2 classes.
Found 16 images belonging to 2 classes.
Found 624 images belonging to 2 classes.
_________________________________________________________________
Layer (type)                 Output Shape              Param #   
=================================================================
conv2d_1 (Conv2D)            (None, 126, 126, 512)     14336     
_________________________________________________________________
max_pooling2d_1 (MaxPooling2 (None, 63, 63, 512)       0         
_________________________________________________________________
dropout_1 (Dropout)          (None, 63, 63, 512)       0         
_________________________________________________________________
conv2d_2 (Conv2D)            (None, 61, 61, 512)       2359808   
_________________________________________________________________
max_pooling2d_2 (MaxPooling2 (None, 30, 30, 512)       0         
_________________________________________________________________
dropout_2 (Dropout)          (None, 30, 30, 512)       0         
_________________________________________________________________
conv2d_3 (Conv2D)            (None, 28, 28, 258)       1189122   
_________________________________________________________________
max_pooling2d_3 (MaxPooling2 (None, 14, 14, 258)       0         
_________________________________________________________________
dropout_3 (Dropout)          (None, 14, 14, 258)       0         
_________________________________________________________________
flatten_1 (Flatten)          (None, 50568)             0         
_________________________________________________________________
dense_1 (Dense)              (None, 128)               6472832   
_________________________________________________________________
dropout_4 (Dropout)          (None, 128)               0         
_________________________________________________________________
dense_2 (Dense)              (None, 64)                8256      
_________________________________________________________________
dropout_5 (Dropout)          (None, 64)                0         
_________________________________________________________________
dense_3 (Dense)              (None, 2)                 130       
=================================================================
Total params: 10,044,484
Trainable params: 10,044,484
Non-trainable params: 0
_________________________________________________________________
None
Epoch 1/20

  1/326 [..............................] - ETA: 4:32:26 - loss: 0.6688 - acc: 0.5000
  2/326 [..............................] - ETA: 4:16:57 - loss: 0.7718 - acc: 0.4688
…
