Found 60 images belonging to 4 classes.
Found 20 images belonging to 4 classes.
Found 20 images belonging to 4 classes.
_________________________________________________________________
Layer (type)                 Output Shape              Param #   
=================================================================
conv2d_1 (Conv2D)            (None, 62, 62, 32)        896       
_________________________________________________________________
conv2d_2 (Conv2D)            (None, 60, 60, 64)        18496     
_________________________________________________________________
max_pooling2d_1 (MaxPooling2 (None, 30, 30, 64)        0         
_________________________________________________________________
flatten_1 (Flatten)          (None, 57600)             0         
_________________________________________________________________
dense_1 (Dense)              (None, 128)               7372928   
_________________________________________________________________
dense_2 (Dense)              (None, 4)                 516       
=================================================================
Total params: 7,392,836
Trainable params: 7,392,836
Non-trainable params: 0
_________________________________________________________________
None
Epoch 1/30

 1/12 [=>............................] - ETA: 39s - loss: 1.4152 - acc: 0.0000e+00
 2/12 [====>.........................] - ETA: 20s - loss: 1.3457 - acc: 0.2000    
…
